weights/tinyvgg_best.pt (torch, 36542 bytes, 10 tensors)

conv_block_1.0.weight f4 [10, 3, 3, 3]
00000000: 2860 f33d 1d0c 153e 491f a4bd 404c 1a3e
00000010: 5b91 6ebd 2ac6 c33c 4ee5 01be 2d88 bc3d
00000020: 09c0 143e 25d4 2abe b632 1f3e c64b 503b
00000030: 6275 f23d 9c14 493c 62f5 a33d 692d 6fbd
00000040: 0021 053e 627e d53b 20af ecbd edf0 243d
00000050: 25f6 fdbd f87c 42bd 35d7 b7bd fa12 ed3d
00000060: f9ce 3fbe 0cd9 d6bd 3cd9 9fbd 1b49 debd
00000070: ae9c d53c 8a3c 3bbe 286c 393e b96e 20be
00000080: bf49 1f3e 141e 1f3d 0d88 62bd 89a5 013e
00000090: a850 1d3d 779d 283e d084 f13c 7472 55bd
000000a0: d5df 743d 79e3 33bd e792 b63d 5799 383e
000000b0: b047 f63d e747 99bd d478 f83d a4be 323d
000000c0: 6aca db3d 36e6 ddbd d9a8 39be 2667 85bd
000000d0: 7eb3 0dbe da10 2c3e dc16 733d 69e3 a73d
000000e0: 731b 813d 07a9 3fba 1324 1d3e 06f3 08be
000000f0: 072c 803c 6c4f 02be ea24 7c3d 0618 83bd
00000100: f995 743d a175 21bd 3787 243e 16f6 e6bd
00000110: a33d e8bd a227 e7bd 43c3 333e 68db 843d
00000120: 8095 3e3e ccb7 22be c3f0 43be 4cb7 19be
00000130: ac5e 04be f7f2 9e3d 08cb 8e3d 7c3d 253e
00000140: 8b7a cbbd 3baa b8bd 7945 0d3e 92d7 3bbd
00000150: 992a 223e d964 a0bc 85c1 0b3e 3c42 22be
00000160: 9b08 a9bd f25c a03d b0b5 a63d 324f 5cbc
00000170: 1bd1 153e d143 303e b2c9 eabd a443 9dbd
00000180: bc63 293e b279 53bd 7ead 46bd 4d02 16be
00000190: 891b 9abd 72f8 a13d 8d24 7d3c 7cb6 f0bd
000001a0: bbf3 f03c d611 15be a789 1cbe 85e9 b0bd
000001b0: d2e5 0dbe 295a afbd 2a3e 663e c425 9e3d
000001c0: c81e 873d 05c7 19be ee17 9bbd 85a9 7abd
000001d0: 4cd2 7f3d 0971 0ebe 5616 3fbd bcc9 abbd
000001e0: 9aed 2a3d 7c36 87bd c778 6f3c 2943 a3bd
000001f0: 1f3e 05be 436f a5bd bc7e 18bd 158b f1bd
00000200: 30a2 423e 1462 ee3a 74d2 2b3e 93d3 ab3d
00000210: 287f e9bd 8dc4 063e 8838 c8bc fcfb d2bd
00000220: 3561 39be 78af 4cbe 0132 8a3c bef7 8cbd
00000230: 07a2 583d cd9e 4abe 402e e03d f72e 2abe
00000240: 8226 80bd 7428 9c3c fa98 ba3d 5259 ef3d
00000250: d4df 173e 9ef4 32be 2b95 083c 6977 eebd
00000260: 8e8c 3dbd e3dd 31be ae0c 1e3e 749e 18be
00000270: 0ebd 823d fa16 253d 09a5 243d 4ef8 13be
00000280: db3c 103e 2f7a 893c d7fd 073d 7ad4 1abe
00000290: f8f2 c83d 16d3 03bc 30be a0bd 7163 3b3e
000002a0: 63bc 863d 6f07 a4bd 8033 c5bd ffe1 fbb9
000002b0: c31d 013e 085c 01bd cabf b5bd 5e4e 65bd
000002c0: 23d2 00be 9df5 bb3d fed4 333e 4023 38be
000002d0: d7b5 5b3d fb62 f23d f222 583d a27e 41bd
000002e0: 1c7c e23d 2b72 f43d 5c4a c33d 1b08 dfbb
000002f0: 5c92 4bbd fad0 bc3c 90a3 0fbd 4e5e 6fbd
00000300: a381 033e 17f6 323e da9e 9cbc 7001 37bd
00000310: 9706 b5bb 0a87 bbbb b175 4d3d d2af 5e3d
00000320: 76a9 32be 45b9 83bd 1c1f 313e 4f1d 9c3d
00000330: 7873 2bbc d5c2 fdbd af8d e3bd aba4 2abe
00000340: 589b 76bd 58ff 883d 3151 063e 85dc d13d
00000350: 4636 2bbe 84bb edbd 729c 1cbd bd87 463e
00000360: c21c 983d 7231 dbbd 08c2 c73d fa9f 07be
00000370: f0c7 19be f126 d03d b536 3dbd 06e8 44bd
00000380: 70a2 28be 27f3 343e a23a b73d e56d b43d
00000390: 319d 46be d36a 5abe 8d98 48be 8d71 3e3e
000003a0: cb3b ae3d 5c0f 433e a248 1c3e 0031 a8bb
000003b0: d553 8e3c 6994 53be 9ac1 38be ee98 61be
000003c0: ce92 fe3d 2578 c5bd 5d4b aebb 7f5b bbbd
000003d0: 60e0 78bc 218f e7bd 60cf dabd 8863 b83d
000003e0: 9495 a4bc e8b1 2e3e 9bc0 00bd e927 dabd
000003f0: 298e 74bc bbaa 95bd b05d 14bd 5eed 27be
0.11883575 0.14555402 -0.0801378 0.1506815 -0.05824409 0.023898203 -0.12685129 0.09205661
0.1452638 -0.16682489 0.15546688 0.0031783446 0.11838795 0.01227298 0.080057874 -0.058392916
0.1300087 0.00651531 -0.1155684 0.040268827 -0.12400464 -0.04748246 -0.08976594 0.11575885
-0.18731298 -0.10490617 -0.07805106 -0.108537875 0.026075687 -0.18284813 0.18107665 -0.15667237
0.15555476 0.038847044 -0.05530553 0.12660803 0.038406998 0.16466318 0.029482275 -0.052111104
0.059783775 -0.043918107 0.08914738 0.18027245 0.12025392 -0.074844174 0.12132421 0.04363884
0.10731967 -0.10834925 -0.18130817 -0.06513815 -0.13838002 0.16803303 0.059347972 0.08197672
0.06304064 -0.0007311259 0.15345792 -0.13373956 0.015645994 -0.1272561 0.06155864 -0.064010665
0.059713338 -0.03941882 0.16067205 -0.11277406 -0.11339881 -0.11286856 0.17554955 0.06487161
0.18611717 -0.15890425 -0.19134812 -0.15011328 -0.1292674 0.077611856 0.06972319 0.16136736
-0.099354826 -0.09016844 0.13796033 -0.04585988 0.15836562 -0.019579338 0.1364804 -0.15845579
-0.082535945 0.07830228 0.08140123 -0.013446616 0.14630549 0.1721337 -0.114642516 -0.07678917
0.16541952 -0.05162973 -0.0485053 -0.14649315 -0.07524783 0.07908715 0.015450609 -0.11753556
0.029413095 -0.14557585 -0.15286885 -0.0863829 -0.138572 -0.085621186 0.22484651 0.07722047
0.06597668 -0.15017326 -0.075729236 -0.061196823 0.062456414 -0.13910307 -0.04665216 -0.08388087
0.0417305 -0.06602189 0.014616198 -0.07971794 -0.13011979 -0.08077862 -0.03723024 -0.11794106
0.19007182 0.0018187189 0.167795 0.08389964 -0.11401206 0.13160916 -0.024441019 -0.103019685
-0.18103488 -0.19988811 0.016869547 -0.068831906 0.052888896 -0.1978714 0.109463215 -0.16619478
-0.06257345 0.019062258 0.09111209 0.116869584 0.14831477 -0.17476127 0.008336346 -0.116438694
-0.04627662 -0.173698 0.15434524 -0.14904195 0.063837156 0.040305115 0.040196452 -0.1445019
0.14085715 0.016781894 0.033201065 -0.15120116 0.098119676 -0.008045932 -0.078487754 0.18299653
0.06578901 -0.0800923 -0.096289635 -0.0004804283 0.1260901 -0.03158191 -0.088744715 -0.05598294
-0.12580161 0.091777064 0.17561719 -0.17982197 0.053640213 0.11835285 0.0527677 -0.047239907
0.11058828 0.11935838 0.09535667 -0.006806386 -0.049700126 0.023048867 -0.035068095 -0.058439545
0.12842421 0.17476688 -0.019118715 -0.044679105 -0.005524467 -0.005722885 0.050161067 0.054366894
-0.17447457 -0.06431822 0.17297024 0.07622778 -0.010464542 -0.12390677 -0.111110084 -0.16664378
-0.06020674 0.06689328 0.1311691 0.10247139 -0.16719922 -0.116080314 -0.038235135 0.19387718
0.0742736 -0.1070279 0.097538054 -0.1324462 -0.15017676 0.101636775 -0.04619475 -0.048072837
-0.16468215 0.1767088 0.0894673 0.08810023 -0.19395901 -0.21329813 -0.19589444 0.18598004
0.08507498 0.19048828 0.15262082 -0.0051327944 0.017373959 -0.20662083 -0.18042603 -0.22030994
0.124303445 -0.096420564 -0.0053190426 -0.09148311 -0.015190214 -0.113065965 -0.10684085 0.09003359
-0.020090856 0.17060053 -0.031433683 -0.106521435 -0.014926472 -0.07307955 -0.03622216 -0.16399142

conv_block_1.0.bias f4 [10]
00000000: 418e 113d a13f 54be 28d5 113e e7d0 363e
00000010: 9e21 413e 8c8c 8fbd a8d7 18be 9ed8 eb3c
00000020: fe08 f03d 8ecf 19be
0.035536055 -0.20727398 0.14241469 0.17853127 0.1886048 -0.07009229 -0.14926016 0.028789815
0.11720465 -0.15020582

conv_block_1.2.weight f4 [10, 10, 3, 3]
00000000: 20d5 4ebc 7ab1 41bd 9be7 8fbb f31a a3bc
00000010: 704c f8bc a986 96bc b6fc 87bd bfcd e03d
00000020: 09c9 c33d 8d23 febc d624 2fbd 3d86 4cbd
00000030: b008 c2bd c681 c9bd d538 133d e72a b5bd
00000040: 7146 a0bd ff4c 8dbc 34cb 2bbd 5b24 0cbd
00000050: 8f85 b83b b48b 73bc fc15 18bd 3a35 28bd
00000060: f5fa a3bd 60fe c13d 0bd7 1bbd 3f63 0d3d
00000070: 0c4a 06bd 392a ccba 30dd cf3d 6567 623d
00000080: 6833 b8bd 325e 7c3d a122 e73d aa59 1f3d
00000090: 8ad0 853d 2313 af3d a25a 25bd 0c75 e33b
000000a0: 0a8f a0bd 488c 52bd c2f3 9c3d 249a 3b3d
000000b0: cd63 7ebd 88bc dcbd 16d6 97bd 8bef febd
000000c0: 4cd9 9fbd 5dc7 00bd 9e82 743d 78ad 093d
000000d0: f10d 9fbd 8b00 aabd 7976 133c 694b 67bd
000000e0: 7464 72bd 1e04 243d 0f59 dcbd f938 24bd
000000f0: 31b9 0dbd 52aa 92bd 113d f0bd fb25 bdbd
00000100: dddd c5bd 87bf 71bd b693 e13d 9cbd 80bd
00000110: 2068 d0bd d1e9 503d 6eb2 1b3d 5112 683d
00000120: ed2d 623d 4cd1 123d 0781 fdbd c078 bd3b
00000130: e687 a23d 2b3f 8dbc 4e49 82bd 1c6f cd3d
00000140: ff82 a5bc 0c4a a2bd 4f48 d6bd f28b b2bc
00000150: 1c6b 10bc 1ce1 82bc ad56 34bc b0d6 01be
00000160: bae8 c2bd 8bad edbc bb53 bc3d e4e1 713d
00000170: bbb1 83bd 5916 81bc d392 a3bd ff37 60bd
00000180: 93bf 8b3c 4cee 5a3d 031c ae3d 2ed1 a2bd
00000190: 934c bc3d ca74 64bd e44e 813d ea89 e53d
000001a0: 3e22 ad3c f3a7 ee3d 10ea 91bd c2d8 91bc
000001b0: cd14 b13c 5042 76bd d03b 75bd 174d a9bd
000001c0: 4172 293d 9e4a 563c 47f9 91bb 5db2 cabd
000001d0: f0ec 01be 3d5c 09bc ff8b 983c 8bae 95bd
000001e0: ed2b 1cbd 8e27 593d 10e9 b6bc c22f a9bc
000001f0: 4688 4abd 12af ecbd 5e51 e3bd bf2e 68bd
00000200: 9d11 29bd ddba f63c aba0 08bd 247c d1bc
00000210: afe5 a63d 4cba 693d ff1c ab3d 83e0 61bc
00000220: 39ad 26bc de66 733d e2a2 1cbd fe2f 37bd
00000230: 426f 883b 0996 6ebc 5cf6 4dbd 421e b63d
00000240: 17d4 003e bcca 5c3d fbfa 9c3c 2988 9abd
00000250: 7c1d 9cba da4d 8f3d 2621 b23d 56cb da3c
00000260: 2333 91bb 24f2 b23d 35c1 8abd 99fb a23d
00000270: f66c 7ebc 1a22 1abc c834 09bd b401 aa3b
00000280: 16c7 b1bc b636 d13d e2cb cfbc 0838 9f3d
00000290: a1f4 023e c4ef 47bd ac2f 1fbd 5780 ca3d
000002a0: 59a2 f33d 0360 73bd 6265 5dbb 06cc 0ebd
000002b0: 6741 6bbc 26d9 b43d de9f ab3d f236 813d
000002c0: 9452 273d a1f0 203e cad4 a93d fb13 053c
000002d0: 37db 833c 3c7c 2a3d 28c3 613d 29ed 69bd
000002e0: 4451 693d 7e2e 22bd 483e 91bd 577e 44bd
000002f0: 3a82 f13d 1885 e83d 6d06 f23d e324 ac3d
00000300: e022 db3d 4e8a 3bbb f943 13bd eb13 9c3d
00000310: 82c8 09bd e53e 50bd d81e 10bd 36ec a53c
00000320: bce8 823d c39f 30bd 0c9b 71bd ae83 b23c
00000330: 87be 7ebd 57cd a1bd fe0f 683d 01cd c0bb
00000340: 4d57 c33d 83a3 d63d 5018 233d 8420 3c3d
00000350: a47f ec3c f854 3d3c b4f5 d0bb 2e13 9f3c
00000360: bf6e 673d affe dd3d f6f3 6abc e9b5 b0bc
00000370: b145 b3bc d62f 00bd e6b1 f63c b5fe c83d
00000380: 35ec b53d 350e b53d 7f68 4fbd 00de 03bc
00000390: 9481 14bc 899e 8d3b 7705 093d 1f1b 84bd
000003a0: 9280 f53c af26 64bd f84f 1fbd 652c 88bd
000003b0: 5ef7 f53d 2018 a2bd a1af df3d e24e 8b3c
000003c0: c039 463c c3eb ac3d f551 a63c 28c8 b83d
000003d0: 3bd0 e73d 3bc8 b0bd c534 903d a201 203d
000003e0: ec22 643d 53ef 893c 7ee7 6f3d b86a 11bd
000003f0: 5847 b83a f51b 033e 44c8 bd3d 623a f43c
-0.012624055 -0.047288395 -0.004391623 -0.019910311 -0.030309886 -0.018374758 -0.06639998 0.10976743
0.09559829 -0.031022811 -0.04275974 -0.049932707 -0.09474313 -0.098392054 0.03594287 -0.088460736
-0.07825936 -0.017248629 -0.041941836 -0.03421436 0.005631156 -0.014864851 -0.03713034 -0.041066386
-0.08006851 0.09472346 -0.038046878 0.034518477 -0.03278546 -0.0015576548 0.1014961 0.055274386
-0.0899418 0.06161327 0.11285902 0.03890387 0.06533916 0.08548572 -0.040369637 0.0069414433
-0.078397825 -0.051403314 0.076636806 0.045801297 -0.062106896 -0.10778147 -0.074138805 -0.12448033
-0.07805118 -0.031440128 0.05969488 0.0336127 -0.07766331 -0.08300885 0.009000414 -0.0564684
-0.05917783 0.04004299 -0.10759174 -0.040093396 -0.03460044 -0.07161392 -0.117303975 -0.0923576
-0.09661458 -0.059020545 0.11014502 -0.06286165 -0.1017611 0.051004235 0.03801196 0.056658093
0.05521958 0.035844132 -0.12378126 0.005782217 0.07936077 -0.017242035 -0.06361638 0.10030958
-0.020204065 -0.079242796 -0.104630105 -0.021795247 -0.008814599 -0.015976481 -0.011006993 -0.12679553
-0.09517045 -0.029013416 0.09195658 0.059053317 -0.06430384 -0.015757727 -0.07986989 -0.054740902
0.017059123 0.053449914 0.085014366 -0.07950054 0.09194293 -0.05577544 0.06313875 0.11207946
0.021134492 0.116531275 -0.07124722 -0.017803553 0.021616364 -0.060121834 -0.059871495 -0.08266657
0.041368727 0.013079314 -0.004454765 -0.09897301 -0.1268804 -0.008383808 0.018621443 -0.07308682
-0.03812783 0.053016238 -0.02232793 -0.020652656 -0.049446367 -0.115568295 -0.11099504 -0.056685206
-0.041276563 0.0301184 -0.03335635 -0.02557189 0.081492774 0.057062432 0.0835514 -0.013786438
-0.010173135 0.059424274 -0.038241275 -0.044723503 0.0041636536 -0.014562138 -0.050283775 0.0889249
0.12580906 0.05390428 0.019162646 -0.07545502 -0.0011910642 0.06997271 0.08697729 0.026708286
-0.004431145 0.08737591 -0.067751326 0.07958145 -0.015528908 -0.0094075445 -0.0334976 0.0051881913
-0.021701377 0.102155134 -0.025365774 0.07774359 0.12788631 -0.048812643 -0.038863823 0.0988776
0.118962 -0.059417736 -0.0033782353 -0.03486254 -0.014358855 0.0883048 0.083801016 0.06309308
0.040850237 0.15716793 0.082925394 0.0081224395 0.01609574 0.041622385 0.055117756 -0.05711094
0.056962267 -0.03959512 -0.07091957 -0.04797205 0.11792417 0.113535106 0.11817632 0.08405473
0.10700011 -0.0028616372 -0.035953496 0.076209866 -0.033638485 -0.05084123 -0.035185665 0.020254236
0.06392047 -0.04312111 -0.058985755 0.021791305 -0.06219342 -0.079004936 0.056655876 -0.0058838134
0.09538136 0.10480406 0.039818108 0.045929447 0.028869458 0.011555903 -0.0063769463 0.019418325
0.0565021 0.10839593 -0.014340391 -0.021571117 -0.021883817 -0.03129562 0.030114125 0.098142065
0.088829435 0.088406004 -0.050636765 -0.008048534 -0.009064097 0.0043218774 0.033452477 -0.064504854
0.029968534 -0.055700954 -0.038894624 -0.066490926 0.12010072 -0.07914758 0.109221704 0.017005388
0.01209873 0.084434055 0.020302752 0.09022552 0.11319014 -0.08631941 0.07041315 0.039064057
0.055697367 0.016837751 0.058570378 -0.035502166 0.0014059348 0.12803634 0.09266713 0.029812995

conv_block_1.2.bias f4 [10]
00000000: 32a5 de3c 57b1 f3bb 4423 adbd cbcc e2bd
00000010: 54c5 eebb a792 2fbd 36be 073d a3b1 58bd
00000020: 6c8c 98ba 2503 053d
0.02717838 -0.007436912 -0.08453992 -0.110742174 -0.007286707 -0.042864468 0.033140384 -0.052903783
-0.0011638529 0.032473702

conv_block_2.0.weight f4 [10, 10, 3, 3]
00000000: 6c6e 54bd ef9e 963d f7ab a13d ab3f c1bd
00000010: af3f aabd f5ce a3bd 5c8e 8ebd d1b0 3fbd
00000020: 8582 febb 7017 eabc c01f 64bd 8ae4 12bd
00000030: 9e3f 27bd 4c95 ce3d 2177 2bbd 2c0a a0bd
00000040: 70d8 283d 22dd 16bc aa3d f23d 1c76 cf3d
00000050: 3a26 053e a910 08bd e1af d63d 2899 003e
00000060: 7def a0bc 8792 043e 2df7 f33d 00d3 813c
00000070: 5c3e 803d 6987 90bc 9c79 9abd e2a0 3d3d
00000080: bfe1 223d e50f 1ebd fc65 943d 8280 87bd
00000090: d377 f33d bdb9 083e 56de 5e3d 7d34 febc
000000a0: 9dc7 a93d 5f25 3a3d 0a7b 843d 7003 8c3d
000000b0: 2f19 e03d 8bd0 b2bc df7e ee3b 08b3 843d
000000c0: dcf7 3f3d d1c3 ee3d b400 dcbc b21f 1c3d
000000d0: 84d4 573d 5d8c 6bba 0749 323d 9136 80bc
000000e0: 0dec 01be d3c7 20bd 12e8 9cbd cad8 b7bc
000000f0: d6b2 24bd c013 09be c686 4dbd 54c6 943c
00000100: 58ad 35bb 7982 003e bf39 a43b 090e c33d
00000110: b60e 5e3d a891 7abd 58e0 543d e884 eb3d
00000120: c11d b9bc acdc 8fbc c4c3 193e cb34 103e
00000130: 3b17 ddbb 4778 f83d 8ee0 e43c c5c7 6fbd
00000140: 21de 803d 4478 f13c 9508 12bd 3ac8 063d
00000150: 6d90 c1bd b6b1 8c3d f7ff af3d 7eed 5a3d
00000160: f82a 583c 6237 f63c a667 b8bd e358 29bd
00000170: cd3c a4bc fa00 9dbd 0d80 b8bd 059e 7c3d
00000180: 406c 7c3d 9db7 dabd 1b7e 963c a578 e63c
00000190: 277f af3d 9c4d 3f3d e476 ab3d 5e7b 41bd
000001a0: 4ce3 723d 6458 923d 0cd2 e9bd 5ab8 c8bd
000001b0: ba88 2a3c 8b7b 483d 92f0 18bd 9f8f 80bc
000001c0: 5a02 7abc 7e49 623c 158b 4ebd 0c02 5d3d
000001d0: 65ef 783d 7962 9ebd 9a95 b23b ae5c 8bba
000001e0: dbb0 123d 2125 cf3d 973c fd3c 8435 c4bc
000001f0: 25e3 c13d 274c 24bd cc87 3abd bfe0 6dbb
00000200: 663a abbd beb2 e6ba 4b2c acbd ea00 aabb
00000210: d9ce bcba f367 fb3a 3c36 cabd baeb ddbd
00000220: 265b 323d 27d3 9c3d aea6 d9bd f6e4 153d
00000230: 5eea afbd b524 8b3b 64ee ad3d 6e04 953d
00000240: 67d6 acbd 3374 4a3d 4ab3 1b3d 7798 88bc
00000250: d508 ad3d f9b6 5fbd 8a25 2cbd bf88 8fbd
00000260: cbd6 0aba b3e9 903c 6dd6 d4bb 8b99 99bd
00000270: b2e5 62bd 4e5b d93c cbcf d4bd e6fb d9bc
00000280: d82e 72bc a532 44bd 6646 423d 13f2 ee3b
00000290: 81bb 8e3d 6836 a3bb 0dcb 67bd e4e9 a33d
000002a0: eba0 bb3c c3e0 0bbd 3cc8 81bd 7a19 403c
000002b0: 22ed e9bd 95cc 4f3c 8c56 1f3d 82fb d7bd
000002c0: 1852 a8bd 5a36 bbbd 9a09 963d 71a2 9a3d
000002d0: 4219 b5bb 7a14 e33d d1ee f5bc 70db f3bd
000002e0: ed7c f03c 1ee2 0c3d 26cd 8a3d 1946 e0bc
000002f0: 7f9a 693d a86e 523d 580e 813d c49a f1bd
00000300: 3cc4 9b3d 5d55 cebd bd36 a93d bf6a 65bc
00000310: 705d d3bd e5dc 913c dd1b 28bc 51dd 82bd
00000320: b489 843b 02fe af3c 71f9 c93d c9a7 3d3c
00000330: 4baf 933d 3b59 b63c 0e58 963c e053 c03c
00000340: 9127 84bd 6303 81bd a1cc 25bc afe6 9abd
00000350: 96c0 02bd d506 8b3c 3f3a 70bd 8c99 dbbc
00000360: 86c4 ef3b dee7 893c 3ab4 02bd f485 0c3d
00000370: aea4 963c 5651 783d 3f89 033d a1b9 d9bc
00000380: d3bc 2cbc a57f 143d 594a c8bc 61f0 273d
00000390: 1986 0a3d 980d ac3d abb6 823d f616 ff3d
000003a0: f346 f63c 9278 48bd a4bb 863c 7466 cdbd
000003b0: 2795 37bd 88ff 7ebd fa2f 91bd ded9 8abd
000003c0: 58c4 803d ffc1 e53c c4ef 8cbb 7b5c dc3d
000003d0: b124 afbd 03a1 eb3c 7d63 a33d 439b a93d
000003e0: 8986 8ebd 311c 523d ebcf 3abd dac2 2d3c
000003f0: b8f2 1c3c c047 74bd ebbd 8bbd bade 04bd
-0.05186312 0.07354533 0.07894128 -0.09435972 -0.08312928 -0.07998458 -0.06960747 -0.046799485
-0.007767024 -0.028575629 -0.05569434 -0.035862483 -0.040832154 0.1008707 -0.041861657 -0.0781444
0.041222036 -0.009207996 0.11828168 0.101299495 0.13002864 -0.033219013 0.10482765 0.12558424
-0.019645447 0.12946521 0.119123794 0.015847683 0.06261894 -0.017642694 -0.075427264 0.046296008
0.03976607 -0.038589377 0.072460145 -0.06616308 0.11888089 0.13352104 0.054411255 -0.031030888
0.08290026 0.045445796 0.0646878 0.06836593 0.109423034 -0.021827957 0.007278308 0.0647946
0.046867236 0.11658443 -0.026855804 0.038116165 0.052692905 -0.00089854543 0.043526676 -0.01565102
-0.12687702 -0.039253067 -0.076614514 -0.02244224 -0.040209614 -0.1338644 -0.050177358 0.018160976
-0.002772173 0.12549771 0.0050117667 0.09524161 0.05421325 -0.061174065 0.051971763 0.11499959
-0.022597196 -0.01756128 0.15016085 0.14082639 -0.006747154 0.12132316 0.027939107 -0.058540124
0.06292368 0.029476292 -0.035652716 0.032905795 -0.09451375 0.06869833 0.08593743 0.053449146
0.013193838 0.030055705 -0.09004144 -0.041344535 -0.020048523 -0.07666202 -0.09008799 0.061674137
0.061626673 -0.10679553 0.018370679 0.0281337 0.08569174 0.046704873 0.08372286 -0.047236793
0.0592988 0.071457654 -0.114170164 -0.09800787 0.010408575 0.048945945 -0.0373388 -0.015693484
-0.01525935 0.013811467 -0.050425608 0.05395703 0.06077518 -0.07733626 0.005449963 -0.0010632479
0.035813194 0.10114504 0.03091268 -0.0239513 0.094671525 -0.040111687 -0.045539662 -0.003629729
-0.08360748 -0.0017600877 -0.08406886 -0.0051880972 -0.0014404907 0.001918076 -0.09873626 -0.10835977
0.043543957 0.076574616 -0.10627495 0.036595307 -0.08589624 0.004246319 0.08492735 0.072762355
-0.084393315 0.049427222 0.03801278 -0.016674263 0.0844895 -0.054617856 -0.042027988 -0.07008504
-0.0005296289 0.017689561 -0.006495288 -0.07499989 -0.055394836 0.026532795 -0.10391196 -0.026609372
-0.014781676 -0.04789986 0.04743042 0.007292041 0.06969357 -0.004980851 -0.05659013 0.080035955
0.02290388 -0.034149896 -0.0633702 0.011724824 -0.114221826 0.0126830535 0.038900897 -0.10546018
-0.08218783 -0.09141226 0.0732605 0.075505145 -0.0055266926 0.1108789 -0.030021103 -0.11907089
0.029356444 0.03439533 0.0677741 -0.027377175 0.057032105 0.05137506 0.06301564 -0.11797097
0.07605788 -0.100748755 0.082623936 -0.014002501 -0.10320556 0.017805526 -0.010260549 -0.06389869
0.004044736 0.021483425 0.0986203 0.011575648 0.07211169 0.022259345 0.018352535 0.023477495
-0.06452859 -0.06299474 -0.010119588 -0.07563531 -0.031921946 0.016971031 -0.058649298 -0.026806615
0.0073171286 0.016834196 -0.03191016 0.034307435 0.018389072 0.060624443 0.03211331 -0.026577773
-0.010543066 0.036254544 -0.024449514 0.041000728 0.03381929 0.0840103 0.063824974 0.12455551
0.030063128 -0.04894311 0.016446896 -0.10029307 -0.044819977 -0.062255412 -0.07089229 -0.06779836
0.062874496 0.028046606 -0.004301043 0.10759827 -0.0855192 0.0287633 0.0797796 0.08281567
-0.06959254 0.051296417 -0.045608442 0.010605538 0.009579353 -0.05963874 -0.06823333 -0.03243897

conv_block_2.0.bias f4 [10]
00000000: eea0 543b 59d3 f0bc 5227 cabb bbbd 743d
00000010: 08e3 edbc f6e0 fcbc 6dc0 d53c 7e1d ce3a
00000020: 1824 e83c eecc d1bd
0.0032444554 -0.029397653 -0.006169238 0.059751254 -0.029038921 -0.030868988 0.026092732 0.0015725342
0.028337523 -0.10244165

conv_block_2.2.weight f4 [10, 10, 3, 3]
00000000: 25f9 883d dddd aebc e991 00bd 5676 84bd
00000010: e3b0 21bd a703 153d ce64 c4bc 0188 8d3d
00000020: 8bd1 c6bc 1363 a0bb 54ed 3f3d 0d76 97bc
00000030: c828 d3bc b93e 843c cd04 bf3d f929 013c
00000040: a019 573d 02e9 973d dfc0 543c f51f 963c
00000050: 1ee8 ad3c cefd 563a 1b85 a03d 7753 b23d
00000060: e2a6 c93c a567 61bc 6681 aa3d b75d c2bd
00000070: d526 823d 8d3a 383d 19a5 6b3d 7817 98bc
00000080: 3a38 b4bd a376 843d 757e 65bd fb05 963c
00000090: 890a d33c 149b f3bd 2b59 dabc 0372 60bd
000000a0: 4fc5 833d d632 b4bd ab5d 703d 32b3 303d
000000b0: d978 243d ddfd b43d 3638 8d3b 64f9 d9bd
000000c0: dfd0 873d 3b12 9d3a 1c78 49bb 6a3c dcbd
000000d0: 45db 0fbd 28ec 81bd 9f79 ad3d cd24 723d
000000e0: c196 853d 7333 5a3d 0b7b a7bd c254 72bd
000000f0: 8903 76bd 28bb 76bd a92f 863d 6937 cd3c
00000100: 5d66 7b3d b458 b5bc 2d89 c8bd 2b93 0dbd
00000110: caa1 8d3d 9739 853d 6d08 883c 882b 45bd
00000120: 2334 a1bd 27cd f9bc 06ca 8c3d c6a9 22bd
00000130: edd1 463d 2d85 0f3d 1b02 41bc 68cc 933d
00000140: 7c86 6cbc 6f81 65bb c23c 00bd a0c6 ccbd
00000150: 313b 8b3c 7acf a73c 9b61 59bd 066e 843d
00000160: b990 abbd fc19 d0bd 0a18 a4bd f59e 56bd
00000170: 2a43 e4bc 5787 0bbd dc74 073d 6cd0 ddbd
00000180: be5e 693a 86df 6bbc 335e 3b3c e4c3 db3d
00000190: 1f87 5b3d 4148 8bbd ce67 adbd 2d15 41bd
000001a0: 3531 78bd c78c 043d 8d53 5abc fed4 913d
000001b0: 36dd 1f3d 6bd0 a8bc 6a5c 943b 007d ce3c
000001c0: ab61 f3bb 0310 b83d 9f11 a9bd 2e7a 5e3d
000001d0: 7997 86bd ff20 9bbd 36c7 a6bb a763 8c3d
000001e0: aedb ba3d ead4 313d cc69 0f3c 65ef 353c
000001f0: 5dd1 cebc 65af 093c abf2 7ebd 8c31 643d
00000200: 51c6 703c e27c edbd 5660 15bd da1c c1bd
00000210: ba03 c0bc 89f0 e1bd f3de 073b 4fa8 d8bd
00000220: 7f65 963d 9b32 433d e353 ddbd 27a2 09be
00000230: 0aae 0dbd e000 6dbd 1b32 b439 a9e6 d3bd
00000240: 5c8b 2c3d 9dae c2bd c522 6dbd 27fc 63bd
00000250: 9a28 4d3d d881 85bb df85 d0bd 8075 79bd
00000260: 0db6 4dbd e7f9 fabd 322e b9bb a328 823c
00000270: 08cd 51bd 2310 99bd 8cb9 03bd 746b dbbd
00000280: 9bcc bcbd 44a1 e4bc 5737 093e 231e ce3b
00000290: 7806 b73d 8bbd c4bc a09d 00bc 0de1 99bd
000002a0: 191c fb3d 078f 353e b857 7a3d 9729 893d
000002b0: 6493 b03d 0176 563d e35c 5e3d 9483 cdbd
000002c0: b8da cabd f8b1 a5bd 130c 073d c5ba babd
000002d0: 5fcb cabd f90c 8dbd 89dc ebbd ac6b 8dbc
000002e0: dea8 36ba 66c2 a0bd c49d 503d 6464 67bd
000002f0: 522a 44bd 1b33 743d d90b a83d 6cd9 c3bc
00000300: 61f3 bcbd 47d0 7ebd f05f 29bb 3b6b 343d
00000310: 1354 853d 9756 7dbd 0e61 d8bd 9042 c1bd
00000320: 23f7 01bd adfe c3bb e14b 46bd 6597 a0bd
00000330: 8d06 693b a2e0 afbd 2571 a1bd 4b02 8fbd
00000340: 372a 43bc 3dc8 e03d a58e 683d d1c7 803b
00000350: 932f 213d 596a 693d b935 8d3c e2f4 88bd
00000360: 3c75 c5bd 4cdf dfbd e829 7dbd 0c76 0abe
00000370: 648f 8dbd bdb3 c4bd 9f35 2f3e 0b03 013e
00000380: 671d 953d fa43 9abc cf19 6abd 4620 313b
00000390: 5e57 c6bd 50a2 8ebd 496e 3ebd c2be 45bd
000003a0: 89db f8bd 2f87 883c c978 ae3d 0956 6abd
000003b0: 9fb2 e93c da1f 4fbc c07f eeba a0a8 ea3b
000003c0: a37b b83d eda9 773c 815d 87bd eded a2bd
000003d0: 26ff 213c 2c44 c1bb a03d 0ebd ea17 55bd
000003e0: 876d 9bbd 91e9 9fbd 2ded acbd 9266 4ebc
000003f0: 0533 a63d fda8 073e e7ab 8b3c bdcd f73c
0.066881455 -0.021346027 -0.03138915 -0.06467883 -0.039475333 0.036380436 -0.023973849 0.06910706
-0.02426984 -0.004894623 0.046857193 -0.018488908 -0.025776282 0.01614319 0.093270876 0.007883542
0.052514672 0.074174896 0.012985437 0.018325785 0.021228846 0.0008201272 0.07837888 0.08707326
0.024615709 -0.013757621 0.08325462 -0.09490531 0.06355063 0.044977713 0.057530496 -0.018565878
-0.08799787 0.06467941 -0.056028802 0.018313399 0.02576186 -0.11894813 -0.026653847 -0.05479623
0.06434118 -0.08798759 0.05868308 0.043139644 0.04015431 0.08837483 0.0043096794 -0.106432706
0.06631636 0.0011983583 -0.0030741757 -0.107537106 -0.03512122 -0.06343871 0.08470463 0.059117127
0.06522895 0.053271722 -0.081777655 -0.059162863 -0.060061965 -0.06023708 0.06552059 0.025050836
0.061376918 -0.022137024 -0.09791789 -0.03456418 0.069156244 0.06505125 0.01660558 -0.048137218
-0.078712724 -0.030493332 0.068744704 -0.03971269 0.048540045 0.035039116 -0.011780287 0.07216722
-0.01443636 -0.0035019775 -0.031307943 -0.09998822 0.016995998 0.020484675 -0.0530716 0.06466298
-0.08377213 -0.10161206 -0.080123976 -0.052397687 -0.027864058 -0.034064617 0.03307043 -0.10830769
0.00089023623 -0.014396554 0.011436033 0.107307225 0.05359566 -0.06800891 -0.08467065 -0.047139335
-0.060593802 0.03236082 -0.013325584 0.07120703 0.039029323 -0.020607194 0.004527618 0.025206089
-0.0074274144 0.08987429 -0.08255314 0.05431574 -0.0657186 -0.07574653 -0.0050896658 0.06854945
0.09123932 0.04341594 0.008753251 0.011104439 -0.025246317 0.008403634 -0.062243145 0.055711314
0.01469572 -0.11596085 -0.036468826 -0.09429331 -0.023439277 -0.110322066 0.0020732253 -0.10578977
0.073435776 0.047655683 -0.10807016 -0.13440762 -0.034589805 -0.057862163 0.00034369607 -0.10346729
0.04212509 -0.09505961 -0.057894487 -0.055660393 0.05008755 -0.0040743165 -0.10181784 -0.060903072
-0.050222445 -0.12254696 -0.005651259 0.015888518 -0.051220924 -0.07473781 -0.032159373 -0.107138544
-0.09218713 -0.027908929 0.13400017 0.0062902137 0.08936781 -0.024016162 -0.007850081 -0.07513628
0.122612186 0.17730342 0.06111881 0.06697386 0.086218625 0.05235863 0.054287802 -0.10034862
-0.099049985 -0.080905855 0.0329705 -0.09117655 -0.09902071 -0.0688724 -0.11516673 -0.017263256
-0.0006967912 -0.078495786 0.050931707 -0.056492224 -0.047891922 0.05961905 0.08205385 -0.023907386
-0.09226108 -0.062210348 -0.0025844537 0.044047575 0.065101765 -0.061850157 -0.10565387 -0.09436524
-0.03172983 -0.0059812875 -0.048412208 -0.07841376 0.0035556883 -0.08587767 -0.07882909 -0.06982859
-0.01191192 0.109756924 0.05677666 0.00393007 0.03935201 0.056986187 0.017237531 -0.06687333
-0.09641501 -0.109312624 -0.061807543 -0.13521594 -0.06912115 -0.09604595 0.17110299 0.12598817
0.07280999 -0.018831242 -0.05715352 0.0027027293 -0.09684633 -0.069645524 -0.046491895 -0.048277624
-0.12151248 0.016666023 0.08519132 -0.057210956 0.028527556 -0.012641871 -0.0018196031 0.007161215
0.09007957 0.015116197 -0.06609631 -0.07955537 0.009887492 -0.0058980193 -0.03472674 -0.05202476
-0.0758925 -0.07808221 -0.08443675 -0.012597697 0.081152 0.13248058 0.017049743 0.03024947

conv_block_2.2.bias f4 [10]
00000000: d26f a23d a69f db3d e981 8f3d c1a4 c4bd
00000010: 16cb a0bc b970 26bd 8590 82bc 41ff c03d
00000020: ecad 2bbd 0b9b 9abd
0.07931484 0.1072381 0.070072 -0.09601737 -0.019628089 -0.040634844 -0.015938053 0.09423686
-0.04191391 -0.07549103

classifier.1.weight f4 [2, 2560]
00000000: abb8 f93a a1de e73c a3b2 823c 4857 0d3d
00000010: 7101 843c 5d29 0abc beb1 833c c568 f53c
00000020: aa98 cb3c 1e4e a63c e5f7 47bb 5413 1f3a
00000030: abf8 ee3c 74ca 44b9 3faf 9c3c 16b7 5e3c
00000040: 8de6 aa3c 481d 5a3c 3863 9bba 56cf 3fbb
00000050: aedc a83c 7c3c dd3b 8aff 803c 838d 50bb
00000060: feba bf3c f0ca 713b 8f78 7a3a 5008 253c
00000070: 2e71 d5ba 3645 323b 1513 1f3c da4c 6b3c
00000080: bbbb e03a fda2 a63c 6f97 6fbc b55b 713c
00000090: 7bc9 bb3c 6ab1 1c3c 6c57 023b 347e 31bc
000000a0: 9d58 8c3c e821 c63c 22f3 cc3c 45e0 183c
000000b0: 004e 4d3c fa4b c43c d092 4c3c 867a a63b
000000c0: 936c f0bb c950 653c 935e 273c 518f bb3c
000000d0: aa2a 6dbb 7b51 7a3c 4004 063a df9c 363b
000000e0: 944f 9e3c 1bdd 23bc 2e05 ba3c 167b 8d3c
000000f0: 28f8 73bb 9694 883c 0e36 d439 fe68 4e3c
00000100: a90a 873b 6d08 8bbc f358 333b b20d 853c
00000110: 0bd7 8f3b 6dd6 12bb 2a38 0e3c 19e2 403c
00000120: 7d72 313b ef7a e2bb 6f63 26bb 3f7a 993b
00000130: aae9 7b3c 67d6 d53c de67 d63b 5925 593c
00000140: 0a37 8f3c 2f0c 96bb aaef ebb6 d9ba a13c
00000150: c1a0 b13c 3852 593c 075e d6bb 0921 a13c
00000160: e48c f9bb 992d 953c 5bf2 233c 84cd 663c
00000170: 087a 39bc 7521 c63a 6638 813c 9b2f b43c
00000180: 12e2 103b 2938 bb3c 18ff 153b 9af7 9ebb
00000190: 0cb7 0dba ec0e 213c 9eec a33b fef8 913c
000001a0: f3e3 2ebb b64c 063b 4267 4bbc c51e bf3c
000001b0: 1ba7 803b 3f55 ecbb 2d20 d93b ed1d f83b
000001c0: 8617 643c 5915 853b a327 a03c 335e 293a
000001d0: 8d74 083b 540f 613b 8556 3b3c 2ab7 c13c
000001e0: 9e13 dc3b 3545 b93c c2d4 b73c 962e 40bb
000001f0: 7f26 d03b 371c 6fba fc9b 823c 2ad9 bd3a
00000200: 8a44 773c 5370 043c 5eda bfbb ae59 c1bb
00000210: 8b03 3fbc 18fd 75bb f9d3 503c 23bd 043c
00000220: 5085 b23c 206b 1dbc 90a8 e13b 2a42 28bc
00000230: f53b 083c e6a5 7c3c ffaf 1ebc 40aa da3c
00000240: 7472 703b 8c06 cb3c 8391 813b 353d 943c
00000250: 23cb cb3c 8692 1bba 81b8 ba3a eae0 863c
00000260: 3d45 24bc 0956 9b3c 9062 a7bb 7b08 d53c
00000270: 195b 9ebb 05dc 5339 ac2e be3c 7943 f93a
00000280: 3ed3 d73c 4844 aa3c 2a57 d03c 4cd0 49bc
00000290: 2f1a e23b 5460 6cb9 d9ff 2c3c 4f42 15bc
000002a0: 62d7 683c 48d8 b13b f986 2ebb 0fd7 28bc
000002b0: 04cb 973c 9c02 573a ff2c c23c 1279 4b3c
000002c0: 20a4 653c ddd7 733b 774e 9e3b 4c72 6c39
000002d0: 3f4e 25bc 4650 9d3c bd02 d6bb 2767 8f3c
000002e0: 6524 33ba 9944 993c c5bd c63c 4fb1 8fbb
000002f0: b74c c13c 87ff 0d3c 1d03 8abb 9d0f 453c
00000300: aa00 973c 9243 b83c e9e6 3cbc 8f68 d13c
00000310: fa2e b63c cb7f d83c 2269 903c b0a7 3abb
00000320: 7201 b33c 1e71 d03c ebbb 87b9 f638 813b
00000330: 96ed be3c 5afb dc3c a72f 713c 97df 763c
00000340: a351 a039 b82f 843a 3fa7 27bb 92a7 8e3c
00000350: 30d5 4e3c f511 04bc 6b14 923b f205 12bc
00000360: cb54 3fbc fd00 cb3c 1a55 4bbb 038e 883c
00000370: eacc b13b fd1d 1fbb 0837 20bb 79fd 923c
00000380: b48f 3b3c 8635 db3c f5b4 903c 093d 9d3c
00000390: c1af 21bc 8f1f a5b9 466b 01bc 2574 663b
000003a0: 1611 633b 4401 453c d1b4 de3c be83 963c
000003b0: d3d3 33bc 495c 67bc 1804 7c3c 5623 6f3c
000003c0: 0668 b03c 1d47 413b 8338 e63b 0c25 3d3c
000003d0: 2477 00bc 619c 923c 6207 743c e3bd c5bb
000003e0: 15fa 17bb 5db5 913a 2741 013c b13d 9abb
000003f0: c8ae 983c 126a 94bc ba59 f5b8 98da 503b
0.0019052228 0.0283044 0.015954321 0.034507066 0.016113969 -0.008432713 0.016075965 0.029957185
0.02485307 0.020300921 -0.0030512747 0.0006068249 0.029171309 -0.00018767436 0.019126533 0.013593456
0.020861888 0.013312645 -0.0011855131 -0.002926787 0.02061304 0.006751595 0.01574685 -0.0031822629
0.023404595 0.0036894642 0.0009554708 0.010072783 -0.001628434 0.0027201897 0.009709139 0.014361585
0.0017145792 0.02034139 -0.014623507 0.014731337 0.022923222 0.009563783 0.0019888533 -0.010833312
0.017132098 0.02418609 0.025018279 0.009330814 0.012530804 0.02396201 0.012486175 0.005080524
-0.007337162 0.013996311 0.010215419 0.022895487 -0.003618876 0.0152782155 0.00051123276 0.0027864499
0.019325055 -0.010001446 0.022707548 0.017270606 -0.003722677 0.016672414 0.00040476065 0.012598274
0.004121144 -0.016971791 0.002736625 0.016241882 0.004389649 -0.002240564 0.008680383 0.011772656
0.0027076297 -0.0069116275 -0.0025388857 0.0046837623 0.015375534 0.026103212 0.0065431437 0.013253533
0.0174823 -0.004579089 -7.0314463e-06 0.019742416 0.021683099 0.013264231 -0.0065419707 0.019669073
-0.0076156724 0.01821022 0.0100065125 0.014087085 -0.011320598 0.0015116172 0.015773963 0.021995356
0.0022107405 0.022853928 0.0022887643 -0.0048512938 -0.0005405999 0.009830218 0.005002572 0.017818924
-0.0026686161 0.00204925 -0.012414755 0.023330102 0.0039261705 -0.0072123106 0.00662615 0.007571927
0.013921624 0.0040613827 0.01955015 0.0006460875 0.0020821423 0.0034341412 0.011434202 0.02364691
0.0067162057 0.022616008 0.022440318 -0.0029324642 0.0063522453 -0.0009121331 0.01594352 0.0014484276
0.015092025 0.008083421 -0.005854889 -0.005900583 -0.01165856 -0.0037534889 0.012745851 0.008101734
0.021792084 -0.00960806 0.0068865493 -0.010269681 0.008315076 0.015420413 -0.009685515 0.02669251
0.0036689313 0.024783395 0.003954114 0.018095592 0.024877137 -0.00059346145 0.001424566 0.01646467
-0.010026273 0.018961923 -0.005108185 0.02600502 -0.004832637 0.00020204492 0.023215614 0.0019017301
0.026345845 0.020784512 0.025432188 -0.012317728 0.006900094 -0.00022542599 0.010559046 -0.0091100475
0.0142115075 0.005427394 -0.0026630743 -0.01030518 0.018529423 0.0008201988 0.023703096 0.012419002
0.014016181 0.0037207522 0.004831131 0.00022549293 -0.010089456 0.019203316 -0.006531088 0.017505242
-0.00068337313 0.018709468 0.024260411 -0.0043851505 0.02359615 0.0086668795 -0.004211797 0.012027648
0.018432934 0.022493158 -0.011529663 0.025562553 0.022239197 0.026428124 0.017628256 -0.0028481297
0.021851275 0.025444563 -0.00025889216 0.003943558 0.02330665 0.026975323 0.014720834 0.015067956
0.00030578402 0.0010085022 -0.0025581864 0.017413888 0.01262407 -0.008060922 0.0044580004 -0.00891255
-0.011677931 0.024780745 -0.0031026066 0.016669279 0.005426039 -0.002427935 -0.0024446864 0.01794313
0.011447836 0.02675892 0.017664412 0.019194143 -0.009868563 -0.00031494765 -0.007899111 0.0035164442
0.0034647635 0.0120242275 0.02718583 0.018373366 -0.010975796 -0.014121124 0.015381835 0.014595827
0.021533977 0.002949185 0.0070257797 0.011544477 -0.007840905 0.017896833 0.014894338 -0.006034599
-0.0023189832 0.0011116673 0.007889069 -0.004707061 0.01863803 -0.018116985 -0.00011699223 0.0031868573

classifier.1.bias f4 [2]
00000000: 5f14 7f3c 181b 91bc
0.015568822 -0.017713115
